Model: "ChemBERTa_OA_DeepFPLearn"
┏━━━━━━━━━━━━━━━━━━━━━━━━━━━━━━━┳━━━━━━━━━━━━━━━━━━━━━━━━━━━┳━━━━━━━━━━━━━━━━━┳━━━━━━━━━━━━━━━━━━━━━━━━━━━━┓
┃ Layer (type)                  ┃ Output Shape              ┃         Param # ┃ Connected to               ┃
┡━━━━━━━━━━━━━━━━━━━━━━━━━━━━━━━╇━━━━━━━━━━━━━━━━━━━━━━━━━━━╇━━━━━━━━━━━━━━━━━╇━━━━━━━━━━━━━━━━━━━━━━━━━━━━┩
│ fingerprint_input             │ (None, 2048)              │               0 │ -                          │
│ (InputLayer)                  │                           │                 │                            │
├───────────────────────────────┼───────────────────────────┼─────────────────┼────────────────────────────┤
│ dense_4 (Dense)               │ (None, 1024)              │       2,098,176 │ fingerprint_input[0][0]    │
├───────────────────────────────┼───────────────────────────┼─────────────────┼────────────────────────────┤
│ chemberta_input (InputLayer)  │ (None, 768)               │               0 │ -                          │
├───────────────────────────────┼───────────────────────────┼─────────────────┼────────────────────────────┤
│ ontology_input (InputLayer)   │ (None, 32)                │               0 │ -                          │
├───────────────────────────────┼───────────────────────────┼─────────────────┼────────────────────────────┤
│ dropout_1 (Dropout)           │ (None, 1024)              │               0 │ dense_4[0][0]              │
├───────────────────────────────┼───────────────────────────┼─────────────────┼────────────────────────────┤
│ dense_6 (Dense)               │ (None, 256)               │         196,864 │ chemberta_input[0][0]      │
├───────────────────────────────┼───────────────────────────┼─────────────────┼────────────────────────────┤
│ dense_7 (Dense)               │ (None, 128)               │           4,224 │ ontology_input[0][0]       │
├───────────────────────────────┼───────────────────────────┼─────────────────┼────────────────────────────┤
│ dense_5 (Dense)               │ (None, 256)               │         262,400 │ dropout_1[0][0]            │
├───────────────────────────────┼───────────────────────────┼─────────────────┼────────────────────────────┤
│ dropout_2 (Dropout)           │ (None, 256)               │               0 │ dense_6[0][0]              │
├───────────────────────────────┼───────────────────────────┼─────────────────┼────────────────────────────┤
│ dropout_3 (Dropout)           │ (None, 128)               │               0 │ dense_7[0][0]              │
├───────────────────────────────┼───────────────────────────┼─────────────────┼────────────────────────────┤
│ deepfplearn_latent_fingerpri… │ (None, 64)                │          16,448 │ dense_5[0][0]              │
│ (Dense)                       │                           │                 │                            │
├───────────────────────────────┼───────────────────────────┼─────────────────┼────────────────────────────┤
│ chemberta_smiles_embedding    │ (None, 128)               │          32,896 │ dropout_2[0][0]            │
│ (Dense)                       │                           │                 │                            │
├───────────────────────────────┼───────────────────────────┼─────────────────┼────────────────────────────┤
│ ontology_semantic_embedding   │ (None, 64)                │           8,256 │ dropout_3[0][0]            │
│ (Dense)                       │                           │                 │                            │
├───────────────────────────────┼───────────────────────────┼─────────────────┼────────────────────────────┤
│ fp_chemberta_ontology_fusion  │ (None, 256)               │               0 │ deepfplearn_latent_finger… │
│ (Concatenate)                 │                           │                 │ chemberta_smiles_embeddin… │
│                               │                           │                 │ ontology_semantic_embeddi… │
├───────────────────────────────┼───────────────────────────┼─────────────────┼────────────────────────────┤
│ attention_weights (Dense)     │ (None, 256)               │          65,792 │ fp_chemberta_ontology_fus… │
├───────────────────────────────┼───────────────────────────┼─────────────────┼────────────────────────────┤
│ attention_weighted_fusion     │ (None, 256)               │               0 │ fp_chemberta_ontology_fus… │
│ (Multiply)                    │                           │                 │ attention_weights[0][0]    │
├───────────────────────────────┼───────────────────────────┼─────────────────┼────────────────────────────┤
│ dense_8 (Dense)               │ (None, 128)               │          32,896 │ attention_weighted_fusion… │
├───────────────────────────────┼───────────────────────────┼─────────────────┼────────────────────────────┤
│ dropout_4 (Dropout)           │ (None, 128)               │               0 │ dense_8[0][0]              │
├───────────────────────────────┼───────────────────────────┼─────────────────┼────────────────────────────┤
│ dense_9 (Dense)               │ (None, 64)                │           8,256 │ dropout_4[0][0]            │
├───────────────────────────────┼───────────────────────────┼─────────────────┼────────────────────────────┤
│ toxicity_probability (Dense)  │ (None, 1)                 │              65 │ dense_9[0][0]              │
└───────────────────────────────┴───────────────────────────┴─────────────────┴────────────────────────────┘
 Total params: 2,726,273 (10.40 MB)
 Trainable params: 2,726,273 (10.40 MB)
 Non-trainable params: 0 (0.00 B)
